…
		    See `nditer` parameters of the same name
		
		Returns
		-------
		iters : tuple of nditer
		    An nditer for each item in `axes`, outermost first
		
		See Also
		--------
		nditer
		
		Examples
		--------
		
		Basic usage. Note how y is the "flattened" version of
		[a[:, 0, :], a[:, 1, 0], a[:, 2, :]] since we specified
		the first iter's axes as [1]
		
		>>> a = np.arange(12).reshape(2, 3, 2)
		>>> i, j = np.nested_iters(a, [[1], [0, 2]], flags=["multi_index"])
		>>> for x in i:
		...      print(i.multi_index)
		...      for y in j:
		...          print('', j.multi_index, y)
		(0,)
		 (0, 0) 0
		 (0, 1) 1
		 (1, 0) 6
		 (1, 1) 7
		(1,)
		 (0, 0) 2
		 (0, 1) 3
		 (1, 0) 8
		 (1, 1) 9
		(2,)
		 (0, 0) 4
		 (0, 1) 5
		 (1, 0) 10
		 (1, 1) 11
	**/
	static public function nested_iters(args:haxe.extern.Rest<Dynamic>):Dynamic;
	/**
		nextafter(x1, x2, /, out=None, *, where=True, casting='same_kind', order='K', dtype=None, subok=True[, signature, extobj])
		
		Return the next floating-point value after x1 towards x2, element-wise.
		
		Parameters
		----------
		x1 : array_like
		    Values to find the next representable value of.
		x2 : array_like
…
